checkpoint/model_best_secondary.pt (torch, 673915 bytes, 13 tensors)

conv1.weight f4 [10, 1, 3]
000000 04 bf be bd 77 92 15 be a3 f2 8d be fa a8 4b 3e
       -0.09313777 -0.14606653 -0.2772418 0.19888678
000010 6b 8d 65 bd 51 44 a7 be 4a a9 36 3d f5 2b 36 3c
       -0.05604307 -0.3266931 0.04459504 0.011118879
000020 46 fa e8 be cb 57 54 be f3 a9 d6 be 48 24 b0 3e
       -0.45503443 -0.20736615 -0.41926536 0.3440268
000030 67 59 c0 3e 8e 76 90 bd c6 bd b0 be 04 8c 9d bd
       0.3756821 -0.070538625 -0.34519786 -0.076927215
000040 1e 41 d5 3e 60 e9 b8 3e ac 33 3c be 8e ef 2d be
       0.41651243 0.3611555 -0.18379086 -0.16985914
000050 13 43 3f be ce 5c 10 3f 62 bb d6 bd 78 07 08 bf
       -0.1867793 0.5639161 -0.10484959 -0.53136396
000060 22 47 d6 3e 6d 8b 98 bd 90 b4 cc be 6b 9b e0 3e
       0.41851145 -0.07448468 -0.39981508 0.43868575
000070 4f 82 a1 bd 8e a8 cc be
       -0.078861825 -0.39972347

conv1.bias f4 [10]
000000 02 e3 8a bb 5e a7 0c be 03 0d 8d 3e 99 fa a7 3e
       -0.004238487 -0.1373572 0.2754899 0.32808378
000010 49 b2 2a 3e 8f 6f 09 3f 66 7f 4a 3d 7c 9f 56 bd
       0.16669573 0.5368585 0.049437903 -0.05239819
000020 2a 3d 58 be d4 ef c8 3c
       -0.21117082 0.024528421

conv2.weight f4 [1, 10, 3]
000000 f9 e1 c7 3c 34 db 3a 3d 1a 03 a7 3d d5 48 52 3e
       0.024399744 0.045619205 0.081548885 0.20535596
000010 ec eb 63 3b d7 65 fc 3c b0 54 e8 3d 30 0b 10 bc
       0.0034778072 0.03081028 0.11344278 -0.00879173
000020 fa 7a 73 3d 03 2d b1 bb d5 d5 a2 3c 3a bd 9e 3c
       0.05944345 -0.005406977 0.019877354 0.01937734
000030 9f ba 27 3e 88 2c d4 bb 0a cc 05 bd 55 f3 7c bb
       0.16379784 -0.006475035 -0.03266529 -0.0038597186
000040 66 98 e5 bc d8 7c 86 38 56 b2 9f 3b a6 42 1b 3d
       -0.02802677 6.412872e-05 0.004873554 0.037905358
000050 1c 4c 89 3d 5e 66 eb 3d b9 f8 3a bb 65 a7 89 bc
       0.0670397 0.11494134 -0.0028529598 -0.016803453
000060 8b 87 21 3e 6a 71 97 bb d6 f4 c8 bc 56 a2 17 3e
       0.15774362 -0.0046216743 -0.02453081 0.1480802
000070 26 8c 5f bb b0 98 c1 bc
       -0.0034110635 -0.023632377

lstm.weight_ih_l0 f4 [400, 100]
000000 63 60 01 bd 5e 48 33 3d b1 b9 63 3b f8 4d 66 bc
       -0.031586062 0.043770187 0.0034748132 -0.014056675
000010 28 e3 e1 bd 41 95 2f 3d 72 37 10 3c ef 96 ea 3d
       -0.11029655 0.04286695 0.008802282 0.114545695
000020 f4 28 ae bb b4 ec 8f 3c 94 57 d7 bd 94 73 21 bd
       -0.0053149406 0.017568924 -0.10514751 -0.039416865
000030 03 c4 44 bd d7 99 b2 bd 93 2d 6c 3c 52 f7 8a 3d
       -0.048038494 -0.08720749 0.014415163 0.06785454
000040 78 c3 0b be 46 d9 a6 bd 47 f5 db 3d c8 56 8f 3c
       -0.13648784 -0.0814691 0.10740142 0.017497435
000050 60 a7 83 bd 16 ba 50 3d 01 fd 41 3a 95 b7 8e bb
       -0.064284086 0.050958715 0.0007400066 -0.004355381
000060 6e d6 c8 3d a7 c5 6a bc 10 0e f1 3b 13 d1 cd bd
       0.09806524 -0.014329351 0.0073564127 -0.10049643
000070 70 42 f2 3b a2 9a aa bd d0 35 74 be 02 95 ca bd
       0.007393174 -0.08330275 -0.23848653 -0.09891702
000080 cf d7 07 3e 75 a6 78 3d 71 bd 6a 3d 6e 06 99 bd
       0.13265918 0.06070562 0.05730957 -0.074719295
000090 a7 5e b9 3c 47 e2 78 3d 30 9a ea 3c 6e 09 a7 3c
       0.022628142 0.06076267 0.028637975 0.020390239
0000a0 78 4a dd bc 17 00 b0 3d 2c d3 ab 3d 0a 77 48 bd
       -0.027013049 0.08593767 0.08389887 -0.04894165
0000b0 9b b9 3e 3d 43 3b 5c bc 9d 09 c0 3d d2 5d dd 3d
       0.046563726 -0.0134418635 0.093768336 0.108089104
0000c0 da 1e 83 3d 86 93 c9 3c ef 53 0d 3d 9d 30 de 3c
       0.06402369 0.024606477 0.034503873 0.02712279
0000d0 f5 40 f8 3b db c4 0c 3c 42 4c 16 bd 3c 38 47 bd
       0.007576103 0.008591856 -0.03669382 -0.048637614
0000e0 55 43 db 3d 85 78 7c 3d 94 4b 6b bd b2 14 7c bc
       0.10706202 0.061638374 -0.057445124 -0.0153857935
0000f0 2c 73 05 3e 2e 1b 9e 3c 8d 18 fd bc 69 cc 28 bd
       0.13032216 0.01930007 -0.030895496 -0.041210566
000100 ec 79 4f bd d2 32 88 bd db 35 b5 3c 86 62 80 3b
       -0.050653383 -0.06650318 0.022120407 0.003917995
000110 bb 69 b7 bd 79 45 44 3d d8 c3 f5 bc c9 ef 88 3c
       -0.08955713 0.047917817 -0.030000612 0.016715901
000120 46 a5 2c 3b 2a a8 89 bd fd 52 ae bd d6 b5 71 3d
       0.0026343628 -0.06721528 -0.085119225 0.059011303
000130 72 78 6f 3d 9d de fb 3d f1 a9 10 3e c3 83 20 be
       0.058464475 0.122983195 0.14127328 -0.15675263
000140 2b 74 d3 bc 83 05 19 bd 80 c4 6a bc b7 84 fb 3c
       -0.02581223 -0.037358772 -0.014329076 0.030702932
000150 b3 cc 18 3d 2a e3 b1 bc eb b8 83 bd 7f 07 b9 bd
       0.03730459 -0.021714766 -0.06431755 -0.09034633
000160 22 7b 6f bc b4 f7 23 3e 59 99 9a 3d 95 33 8e 3d
       -0.0146167595 0.1601246 0.0754878 0.06943432
000170 d1 f4 a6 3d f1 b6 c8 bd 76 a6 63 bd 4b 63 84 bb
       0.08152164 -0.09800518 -0.05557867 -0.004040157
000180 78 8e 09 3d d5 92 fb 3b 59 2d 85 3d f4 1c 93 bc
       0.033583134 0.007677416 0.0650279 -0.017958142
000190 b6 e0 7f 3d 22 c8 e1 bc 0e 89 a7 bc 66 36 8d 3d
       0.06247016 -0.027561251 -0.020451095 0.06895141
0001a0 b9 4d 72 3c 1f 86 37 3c 30 51 d1 3d 92 56 37 3d
       0.014789038 0.011201411 0.102205634 0.044760294
0001b0 e8 04 40 3d 6b 37 71 bc 25 31 46 bc 61 a6 13 bd
       0.04687968 -0.014722685 -0.012096678 -0.036047343
0001c0 e3 3f 12 3d b6 2d 35 3d 3b 9c fa bc be f6 a9 bc
       0.03570546 0.044233046 -0.030592075 -0.020747539
0001d0 1b 03 19 bc cb 7e ce 3d 13 c7 f5 3d d7 fa 99 bd
       -0.009339119 0.100827776 0.12000861 -0.07518547
0001e0 48 63 a9 3b 94 f9 c4 3d 1b 73 92 bd f0 7b d1 3d
       0.005169306 0.09617916 -0.07150861 0.10228717
0001f0 8b e9 1a 3d 5e 18 81 3d e1 44 5b bc 12 78 a6 3c
       0.03782038 0.06303476 -0.013383121 0.020320926
000200 76 c6 7c bd 9f c8 f1 3b b2 b4 11 bd 0c d5 61 3d
       -0.061712705 0.007378652 -0.035572715 0.055134818
000210 81 b9 87 bd 07 dd 31 bc 55 88 be 3d f0 fe 83 3d
       -0.06627179 -0.01085592 0.09303347 0.0644511
000220 a9 c5 c6 bc b7 21 20 3d 1c d7 e6 3d 6d 73 8f bd
       -0.024264174 0.039094653 0.112714976 -0.070044376
000230 5a 30 be 3d 1a 67 89 bd f9 1e 63 3d d1 62 4d bd
       0.09286566 -0.06709118 0.05544946 -0.050143067
000240 6d 4a 66 bd 28 19 22 bd 5e ba ac bc fa 80 a6 bd
       -0.05622332 -0.039574772 -0.02108496 -0.08130069
000250 96 16 b6 3d 74 1c 9a 3c b2 29 a9 3c 43 86 81 bc
       0.08891027 0.018812396 0.020649765 -0.015811091
000260 d3 88 c8 3d 90 86 ca b9 bc 86 6f bd 17 89 7c bc
       0.09791722 -0.000386287 -0.058478102 -0.015413544
000270 f8 3d 3c 3d 27 50 21 bd b0 f9 23 bd 54 44 ba 3d
       0.045957536 -0.03938308 -0.040033042 0.09095064
000280 74 02 68 3d 79 83 85 bc 1a 7b 2c bd 8e 98 c2 3d
       0.056642964 -0.016298043 -0.042109586 0.09501754
000290 ac f4 61 bd f5 7a 4d bd a2 0d ca 3d 48 9e 5d bd
       -0.055164978 -0.05016609 0.098658815 -0.054106027
0002a0 c6 24 bf 3d e2 35 c3 3d 44 a9 e1 3d 51 60 25 3d
       0.09333186 0.09531762 0.11018613 0.040375058
0002b0 61 13 1c bd 7e a6 f3 bc ff 74 f8 3d 15 8c b8 3c
       -0.03810442 -0.029742476 0.1213169 0.022527734
0002c0 f8 40 8b 3c 82 a8 a0 bd 68 bc 56 3c bb 35 6e bd
       0.016998753 -0.0784464 0.013106443 -0.05815671
0002d0 79 2d 83 3d 4d 67 d9 3d 32 8d 45 bd bc 20 eb 3d
       0.064051576 0.10615406 -0.048230357 0.11480853
0002e0 c8 ad e0 3c 10 8c 15 3d 0b 29 a0 3d 64 34 d2 3d
       0.027426615 0.036510527 0.07820328 0.10263899
0002f0 25 67 26 3d 55 dc 87 3d 88 42 d8 3d c9 1d eb bc
       0.04062571 0.06633822 0.10559565 -0.028700726
000300 be 13 64 3b ba 8e da 3d fc 1e 63 bd d0 ce a7 bd
       0.0034801806 0.10671754 -0.05544947 -0.08193743
000310 35 ce 10 3d 67 de d3 bc 80 00 1a bd a5 fe 52 bb
       0.035352904 -0.025862886 -0.037598133 -0.0032195237
000320 12 1d 4c bc b1 01 0c 3c 26 f0 ad 3b 3b 8c 11 3c
       -0.012458103 0.008545325 0.005308169 0.008883531
000330 f4 48 f7 bc 90 05 ae bc 03 a9 a5 bd 60 fa b7 3b
       -0.030186154 -0.021242887 -0.08088877 0.005614564
000340 cc d3 13 3d 5e 6a fc 3c be 85 9a bd dd 11 07 3e
       0.036090657 0.030812439 -0.075450405 0.13190408
000350 bc 7c b7 3d 7b 0e 0f 3d 29 b6 1c 3e 3c c3 8b bc
       0.08959338 0.03492592 0.15303864 -0.017060868
000360 25 aa 7a 3c bb 65 1d 3e 3a 84 15 be b7 bd 00 bd
       0.015299355 0.15370838 -0.14601222 -0.031430926
000370 46 b6 e0 3d d8 6f 05 3d f5 67 3b bd a7 8c 83 3e
       0.10972266 0.032577366 -0.045753438 0.25693247
000380 44 7a c4 bc c3 24 47 bc e4 d7 0c 3e 52 9d 2c bd
       -0.023984082 -0.012154761 0.1375423 -0.04214222
000390 a0 9a e5 3c 3e 1a 4c bc 1c 94 51 3d c4 78 37 3d
       0.028027833 -0.0124574285 0.05116664 0.044792905
0003a0 44 fa 71 bd 45 04 66 bd 39 0b 7a 3c 0c 42 2a 3d
       -0.059076563 -0.056156415 0.015261465 0.041566893
0003b0 b6 32 74 bd 57 15 7a bd 1a 8f 09 bb 64 2c 9f 3c
       -0.059618674 -0.061055508 -0.0020989836 0.019430347
0003c0 33 41 62 bd 5e 02 80 3c 42 b1 c0 3c 8f d4 9d bd
       -0.05523796 0.015626129 0.023522023 -0.07706558
0003d0 7d 42 02 3e e7 85 f4 bd 8e c7 00 be f9 23 1f 3e
       0.12720676 -0.11939602 -0.12576124 0.15541066
0003e0 b1 c7 b4 bd 2e 51 40 3d 15 64 52 3d 1c 28 19 bd
       -0.088271506 0.04695242 0.051364977 -0.037391767
0003f0 87 39 a0 bd 77 57 14 bd 10 39 ab 3d df 42 85 bd
       -0.078234725 -0.036216225 0.08360493 -0.06506895

lstm.weight_hh_l0 f4 [400, 100]
000000 a1 8f 04 3e 0d d7 94 3d f2 77 94 bb aa c2 75 bd
       0.12945415 0.0726758 -0.0045309 -0.0600001
000010 1b 4f 96 bd 1d 84 62 3d 4f 7e b2 3c eb c4 ac bc
       -0.07339307 0.055301774 0.021788744 -0.021089992
000020 10 9e 0a 3e c2 77 43 3d 2a 90 2f bc c1 c7 2d 3d
       0.13536859 0.04772163 -0.010715524 0.04242683
000030 3b 16 b4 3d fe 2b 68 3c 2f 4d 63 3d dd d4 bb bd
       0.087933026 0.014170645 0.05549353 -0.0917146
000040 a3 2f a1 bd d0 9d 9e 3d 99 76 c7 3d 1e fd 0d 3b
       -0.07870414 0.07744944 0.097394176 0.0021665762
000050 28 fc b5 bd e9 61 c5 bd 19 7b 8e be f0 d2 93 3d
       -0.088859856 -0.096378155 -0.2782829 0.072179675
000060 3c bd 33 bd dd 4d 69 3d ed 74 4b bd ca 21 40 3c
       -0.04388164 0.05695902 -0.049672056 0.011726806
000070 2e 6a 14 3d bd 9f d6 3c a6 4b 01 bb 25 e9 81 bd
       0.036234073 0.026199216 -0.0019728928 -0.06343297
000080 7f 7d e6 bc f3 82 91 bd 02 66 d5 3d 51 ca a8 bd
       -0.028136013 -0.07105055 0.10419847 -0.08241714
000090 f3 4a 3b bd 76 48 22 bd 65 35 c9 bd d7 13 8e bd
       -0.045725774 -0.039619885 -0.09824637 -0.06937378
0000a0 ef 39 f4 3d de 1f 38 3d 97 57 be bd dc 9b 5b 3d
       0.119251125 0.044952266 -0.0929405 0.053615436
0000b0 e4 7a a3 bd 30 52 4a 3d 98 ef c0 bd bc e7 c7 bd
       -0.07982424 0.049394786 -0.09420699 -0.09760997
0000c0 b7 c0 18 bd c3 25 8d 3d e9 eb cb 3c d9 0f 9a 3c
       -0.037293162 0.06891968 0.024892764 0.018806385
0000d0 25 71 9a 3d 24 a4 a6 3d b2 1b 13 bd 92 d5 b8 bd
       0.07541112 0.08136776 -0.035915084 -0.0902511
0000e0 b3 7c 30 bd 3f ed 92 bd 8e 5f a2 bb 0c d3 88 bd
       -0.043087672 -0.07174157 -0.0049552387 -0.06680879
0000f0 40 a9 45 3d 94 b6 81 bd 52 cb 07 bd 8f 73 3a 3d
       0.048257113 -0.06333652 -0.033152886 0.04552036
000100 ba c2 04 be 33 5b 4a 3e 93 4b a0 bd 4c 57 5d 3d
       -0.12964907 0.19761352 -0.07826915 0.05403833
000110 0c 6a b9 3d 4c 46 c1 3d f5 61 df 3e b4 ac 81 3e
       0.0905343 0.09437236 0.43629423 0.25327075
000120 4d c7 37 bc 54 d5 5b 3d b0 e8 e4 3d 34 32 d4 3c
       -0.011216951 0.053670242 0.11177194 0.025902845
000130 d6 34 70 bd 71 33 6f 3d 42 1b c2 3d b6 b4 c9 3d
       -0.05864414 0.058398668 0.09477855 0.09848921
000140 83 46 9d bd 92 49 d2 bc f6 03 07 bd 3e b7 d6 3c
       -0.07679465 -0.025669847 -0.03296276 0.026210424
000150 b6 56 4b 3d c0 55 d4 bc 92 ad d5 3c 81 58 6c bc
       0.04964324 -0.025919795 0.026083741 -0.014425398
000160 ad bc a6 3e 6c e9 ad 3b 47 4e b9 3d 19 83 9b bd
       0.32565823 0.005307367 0.09048133 -0.07593364
000170 4a 34 e4 bd 35 e3 d7 3d b4 0b 53 bd ae d8 c6 3c
       -0.11142786 0.10541383 -0.051524833 0.024273243
000180 86 03 ae 3c 70 3b 39 3e 4c 94 72 3c cb 40 e1 bb
       0.021241914 0.1808908 0.014805865 -0.006874179
000190 a8 b6 a1 bd 82 a0 c7 bd 1a 92 98 bd 76 37 9c bd
       -0.07896167 -0.09747411 -0.07449742 -0.07627766
0001a0 f4 45 15 bc 5a 3a b7 3d f0 a5 63 bc 3a 28 a6 bd
       -0.009110916 0.089466766 -0.013894543 -0.08113141
0001b0 52 33 e2 3d f6 04 8b bd 79 32 db 3c bf 76 df bc
       0.11044945 -0.067880556 0.026757466 -0.027278302
0001c0 d8 96 68 bd 30 63 1d 3c cc 4f 9b 3b e3 27 fa 3b
       -0.05678448 0.009606168 0.004739737 0.0076341494
0001d0 57 d8 8c 3c ff a6 15 3d d8 ff 0e bd 3a 5c 95 bd
       0.017193003 0.036536213 -0.03491196 -0.072929814
0001e0 ea 36 95 3d 70 1c 47 bd f8 8c 9d 3b ba 1d fe bd
       0.07285865 -0.048611104 0.0048080646 -0.12408014
0001f0 0f d1 01 be 38 a7 9f 3d 43 0e 67 3d 9c 58 69 bd
       -0.12677406 0.07795566 0.056410085 -0.05696927
000200 19 03 ef 3d 1c 6e 85 3c aa 7c ec bd d1 07 07 3d
       0.11670513 0.016287856 -0.11547215 0.03296644
000210 8f 8e a8 3d 01 aa 91 bd 09 2a 88 3c 52 b0 38 bd
       0.08230316 -0.07112504 0.016621606 -0.045090027
000220 33 99 ee bd c4 3f af bd 5b ad 8d 3d 04 79 96 b9
       -0.11650314 -0.08557084 0.069178306 -0.00028700393
000230 f0 dc ea 3c c5 00 8f 3c c6 53 99 bd 8a cd 87 bc
       0.028669804 0.017456422 -0.07486682 -0.0165775
000240 f6 69 5e 3d 64 10 77 3c 71 8b 01 3d 19 38 8e bd
       0.05430027 0.015079591 0.031627122 -0.069442935
000250 33 74 41 3c da cf f8 3c 1f 03 97 bd a6 87 28 3d
       0.011807489 0.030372549 -0.07373642 0.04114499
000260 c5 6e 29 bd ac f4 e5 bc 41 fe 03 be f5 5c 1f bd
       -0.041365404 -0.02807077 -0.12889959 -0.03890701
000270 fe d1 87 bd fd e2 88 bd f8 6a fa 3d 4a f1 c3 3c
       -0.0663185 -0.066839196 0.12227434 0.023918767
000280 a8 c7 ec 3c 4b e1 61 bd e5 5c 5d 3d af 67 d4 bd
       0.028903797 -0.055146497 0.05404367 -0.103713386
000290 b1 50 fb 3d ee 14 da 3d 40 ba 07 be 55 7e b5 3d
       0.1227125 0.10648523 -0.13254642 0.088619865
0002a0 30 c4 b3 bb aa 46 e7 3d 39 a7 e9 3d d1 a8 fb bb
       -0.005486034 0.11292775 0.11408848 -0.0076800366
0002b0 8d 58 af bd 27 b0 cb bc 16 64 51 3c 58 6c a5 3d
       -0.085618116 -0.02486427 0.01278021 0.080773056
0002c0 c4 07 63 bd 7d 05 a2 3c 51 d7 16 3b d0 0f d8 3b
       -0.055427328 0.019778008 0.0023016522 0.006593682
0002d0 dc 67 5a bc 82 2a fd bc 3b fa b6 3d bc 8b 36 bc
       -0.013330426 -0.030904058 0.089344464 -0.011141714
0002e0 89 10 40 3d 1d 04 45 3d 19 23 8e bd 06 34 bf 3d
       0.04689077 0.048099626 -0.06940288 0.093360946
0002f0 94 d8 f6 3d ec b3 f9 3b a5 a2 92 bc 3c 18 96 3d
       0.12053028 0.0076203253 -0.01789982 0.07328841
000300 2d bd d0 3c a1 64 c4 bd d5 e7 f3 3c 08 5b 9c bd
       0.025480831 -0.09589506 0.029773632 -0.0763455
000310 34 13 8d bd 9c c3 70 3d 16 df 8a 3d 9b 4c 3f bb
       -0.06888428 0.058780298 0.067808315 -0.0029189948
000320 19 db d0 bd b9 7f 8a bd ed a5 94 3d 4e 57 9b 3d
       -0.101980396 -0.067626424 0.0725821 0.075850114
000330 c3 a0 cf bd a8 74 88 3e d4 ba 02 3e 44 af b8 be
       -0.10138085 0.26651502 0.12766582 -0.36071217
000340 49 d1 49 3e 31 81 9c 3d cb f9 f0 be 7c d2 28 3e
       0.19708742 0.07641829 -0.47065577 0.16486543
000350 e3 64 b1 bd 34 b4 86 bd 2d 28 a6 3e 78 90 80 bc
       -0.08661821 -0.0657734 0.32452527 -0.015693888
000360 4d 75 17 bf 6d 42 75 bd 6e 74 81 bd 01 62 66 be
       -0.5916336 -0.0598778 -0.06321035 -0.22498323
000370 b0 07 ee bc b4 2a 44 bd a8 4d 96 3d 7a c2 01 3e
       -0.0290564 -0.047892287 0.073390305 0.12671843
000380 ff 78 43 bf ee 96 05 bc 28 d3 d9 bd 63 b6 41 3e
       -0.763565 -0.00815366 -0.10635978 0.18917231
000390 16 99 2c be b6 5b 81 be a4 c9 4c 3e 0b fe 3d 3d
       -0.16855273 -0.25265282 0.19998795 0.046384852
0003a0 d6 fc aa bd 42 b2 5f 3c f5 8e 0d be 08 c8 a6 3d
       -0.08349006 0.01365334 -0.13824065 0.08143622
0003b0 38 ce 26 3e c5 61 92 bd f1 5d 3b 3c 1a 8e d5 3d
       0.16289604 -0.07147554 0.011435972 0.10427494
0003c0 93 9f 03 bf dd 59 a2 bb ff fe 11 3d 6a 5d b0 bd
       -0.51415366 -0.00495456 0.035643574 -0.08611567
0003d0 f6 2a ce 3d 6e 6d b5 bd 1b e4 d0 3d a2 27 0d be
       0.10066788 -0.08858763 0.10199758 -0.1378465
0003e0 ab f1 3f 3e 3a 66 90 3e 36 37 ae 3c 13 ae 35 3e
       0.18744533 0.28202993 0.021266561 0.17742185
0003f0 2b ff eb bd 72 41 91 bd 0b 40 0a be 7a 97 b3 bd
       -0.11523279 -0.07092561 -0.13500993 -0.08769126

lstm.bias_ih_l0 f4 [400]
000000 1a 68 01 3d b4 76 51 bc 5c 2b 03 bd 32 4f 72 bd
       0.03159342 -0.012784649 -0.032023773 -0.059157558
000010 84 72 bd 3d 2c 75 a7 3d 2e bc 4e 3c b8 5a 00 3d
       0.09250358 0.08176646 0.012618108 0.031336516
000020 d3 09 3e 3d 28 28 26 3d 77 57 09 3d 34 71 85 3d
       0.046396088 0.04056564 0.03353068 0.065157324
000030 79 d0 cb bd cb 04 ce 3d 96 aa d9 3d c3 fd 07 3e
       -0.099518724 0.10059508 0.1062824 0.13280396
000040 92 b6 82 bd d8 49 e2 3d 84 ef 69 3d 1a 1e 51 ba
       -0.06382479 0.11049241 0.057113186 -0.0007977203
000050 17 a1 8e bc 47 b6 14 3c 17 71 3a 3e 06 cd 0c bb
       -0.017410798 0.009076661 0.18207203 -0.0021484508
000060 f4 ad a6 3c c7 fd e2 3d f1 83 1e 3d a2 3f 81 3d
       0.02034662 0.110835604 0.038700048 0.06310965
000070 76 a4 1f bd ef 3a 0a 3e 01 8e dd 3d fd 69 7b bd
       -0.0389752 0.13499044 0.10818101 -0.061380375
000080 e5 05 17 3e 11 f7 90 3d de 23 c6 3d c5 a6 29 3d
       0.14748342 0.07078374 0.0967481 0.04141881
000090 d7 3c 00 bd d6 8d 82 bd d0 14 3e 3c 7b 73 5a 39
       -0.03130802 -0.06374709 0.011601642 0.0002083312
0000a0 27 18 a7 3c 1e e1 da 3d 6e 1c 96 3c bd 1d 14 bd
       0.020397259 0.10687469 0.018324103 -0.036161173
0000b0 6f c5 08 3c 42 c4 8d 3d 9b 3b 00 3d b6 4e 42 3d
       0.008347853 0.06922199 0.031306844 0.047438346
0000c0 6c 79 48 bc 08 77 22 3d e1 77 b3 3d 05 5a ca 3d
       -0.0122359805 0.0396643 0.087630995 0.09880451
0000d0 56 73 39 3c 6a 90 1f 3e 8d ac ef 3c 79 32 cc bd
       0.011319002 0.15582433 0.029257083 -0.099705644
0000e0 2d 34 f2 3d 36 37 b9 3c 68 4f e5 3d 53 5b 17 bd
       0.11826358 0.022609334 0.11196786 -0.036952328
0000f0 35 70 95 3b dc 42 9a bd 77 01 8e 3d dd 42 9a 3c
       0.0045604953 -0.07532284 0.06933873 0.018830711
000100 90 07 6d 3e ec e5 6d 3c b0 f1 87 3c 65 b0 e8 3d
       0.23147416 0.01452015 0.016594738 0.113617696
000110 c0 1d e4 3d f3 84 88 bd 0f 38 2e 3e f8 b1 a6 3e
       0.11138487 -0.06665983 0.17013572 0.32557654
000120 1d ce e9 3d db 38 36 3e 8e a7 f9 3d fd 1f e3 bc
       0.11416266 0.17795126 0.12190162 -0.027725214
000130 ba a3 52 3c 47 da df 3c f0 96 5d 3d 80 29 49 3d
       0.012856418 0.027325762 0.054099023 0.049111843
000140 0d e2 95 bc 7c ac 7f 3d 66 27 41 3e a7 0c 7f bd
       -0.018296266 0.062420353 0.18862686 -0.062267926
000150 c2 33 e9 3d ba a1 89 3d 44 98 5b bd fc 0e 40 3c
       0.11386825 0.067203 -0.05361201 0.011722323
000160 03 aa e5 3c 6c 78 43 3d 08 0b dd 3c 46 ff f4 bc
       0.02803517 0.047722265 0.0269828 -0.02990688
000170 cc 4d 1e 3d 73 21 1e 3b 4d 91 8c 3d ac 96 2c 3b
       0.03864841 0.0024128824 0.068636514 0.0026334925
000180 0a eb 73 3c 44 bb 27 3b 45 ff f5 3d 03 fa 59 3d
       0.014887581 0.0025593797 0.120115794 0.053216945
000190 63 dc 30 bd 1c 54 f9 3d f6 b3 04 bd 79 50 2c bd
       -0.043178927 0.12174246 -0.032398187 -0.042068932
0001a0 6e 39 3d 3d 28 cd ec 3b 00 79 57 bd bc 8b 55 3d
       0.046197347 0.007226605 -0.05260563 0.052135214
0001b0 1d b3 34 bc 6a fd 63 3d 2a ed b4 3d a0 ab 2a bc
       -0.011029032 0.055661596 0.08834298 -0.010416895
0001c0 86 d2 84 3d 43 d2 51 3d cc 6a 08 bd e3 1a 20 3e
       0.06485467 0.05122591 -0.033304974 0.15635256
0001d0 c9 43 83 bd fc a2 d9 bc d2 ef 3c bd 48 fa 27 bd
       -0.06409413 -0.026566975 -0.046127148 -0.04101017
0001e0 76 5a 9d 3d 40 da 0b 3e ed de 2b 3d 60 cc 8d bc
       0.0768327 0.13657475 0.041960645 -0.017309368
0001f0 06 cc d3 bc 05 d1 a7 3d 24 42 61 bd 7a 10 0a 3e
       -0.025854122 0.08194164 -0.054994717 0.13482848
000200 9e 5f 62 bd f2 c4 cb bd e0 f4 b1 bd a9 ef 91 3b
       -0.05526697 -0.09949674 -0.08689284 0.0044536185
000210 58 7b ff 3d 45 e7 90 39 17 b2 0d bd 3a 1f a9 3d
       0.12474698 0.0002763813 -0.034593668 0.08257909
000220 ec e1 de bb 01 5e 6d 3d f2 e2 af 3d 9d 05 48 bd
       -0.0068018343 0.057950977 0.08588208 -0.04883348
000230 c2 b9 88 bd 8a 82 89 bd b5 8e 09 3d 78 a2 2c 3d
       -0.066760555 -0.067143515 0.03358336 0.04214713
000240 f7 2c 25 3d 17 c7 1c 3d 42 9b 80 bd ad 8d 3d bc
       0.040326085 0.038275804 -0.06279613 -0.011569423
000250 53 1a c5 3d 6b 98 8c 3d 19 07 31 3d 9a d5 9a bd
       0.096241616 0.06865009 0.04321966 -0.075602725
000260 09 aa 85 bd e5 5a 82 3d ec 43 2c bc 9b 0a ba 3d
       -0.06526572 0.06364993 -0.010514241 0.09084054
000270 f4 d9 4c bc b2 f9 f0 3c 97 41 61 3d 5d 92 f5 3d
       -0.012503136 0.029415939 0.054994192 0.11990807
000280 d8 42 0f 3e 17 af 17 3d 22 aa b9 3d 08 87 83 bd
       0.13990343 0.037032213 0.090656534 -0.064222395
000290 4c 15 99 3b 08 06 01 3d 62 33 91 3d 87 2d 55 bd
       0.0046717282 0.031499892 0.070898786 -0.05204537
0002a0 0f ae 07 3c 82 cf 63 3d 61 5d 32 bd a4 a3 34 3c
       0.008281245 0.055617817 -0.043546084 0.011025343
0002b0 a4 72 6e 3d 3f 75 d9 3d 54 ab 8b bc 1b f5 df bc
       0.0582148 0.10618066 -0.017049469 -0.027338555
0002c0 df 3f 27 bd f4 17 c8 3c c9 3c 29 bd b4 2c 7b bd
       -0.040832397 0.024425484 -0.041317735 -0.06132193
0002d0 57 af e0 3d d9 ea 80 bd d4 15 9c 3d e4 bd f1 3d
       0.109709434 -0.06294794 0.07621351 0.11803797
0002e0 84 fd 88 3d 07 78 b4 3d ca 47 b3 3d 96 a7 0d bd
       0.06688979 0.08811956 0.08753927 -0.03458365
0002f0 59 dd 8d 3c 4a bf 80 bb fc 54 db 3c f6 52 be bb
       0.01731746 -0.0039290534 0.026773922 -0.0058082296
000300 92 64 5c 3d c3 36 13 bd 37 d8 3f 3a f7 78 e0 3c
       0.05380685 -0.035940897 0.00073182903 0.02740143
000310 02 2a 5e bd 9e fb 98 3d bd ac 81 bc d9 07 4a bd
       -0.05423928 0.07469867 -0.015829438 -0.04932389
000320 a0 46 b2 3d dc 3a 62 3d 04 7a a8 bd 29 46 d1 bd
       0.08704877 0.055231914 -0.08226398 -0.1021846
000330 6d ed 9b bc 7a b9 c4 3b 77 07 66 3d dd ba 42 3d
       -0.019034112 0.006003556 0.056159463 0.047541488
000340 34 48 2d 3c 7c 1d 9b 3d d1 8d d2 3d 21 97 66 bc
       0.010576297 0.07573983 0.102809556 -0.014074118
000350 09 e1 a6 3c 2e 58 2a bc 18 3c 30 bc b3 07 9e 3d
       0.020370977 -0.010397 -0.010756515 0.07716312
000360 0a 3a bd bd de a5 ae bd 01 78 36 3d 54 f9 4d bd
       -0.09239586 -0.085277304 0.04454804 -0.050286606
000370 47 b1 8b bd df f1 41 bd 5a 18 2e 3d 7c 48 81 3d
       -0.06820922 -0.047349807 0.042503692 0.063126534
000380 f7 91 71 bd d6 ee bd 3c 10 41 d5 bc 39 27 08 3d
       -0.058977094 0.023185175 -0.026032 0.03324053
000390 d2 dc 88 bd 1c 85 07 3e ed 9a d1 3d c7 b5 d5 3d
       -0.06682743 0.13234371 0.10234628 0.10435062
0003a0 21 00 48 be d1 2a 97 3d 34 03 03 3e 6c 53 6b 3d
       -0.19531299 0.073812135 0.1279419 0.057452604
0003b0 07 ab f0 3b 73 cb c6 bd d9 ea 4f bd c6 b1 10 bd
       0.007344607 -0.097067736 -0.050761078 -0.035325788
0003c0 bd 85 45 3d 8e 9f b7 bd a3 fe 7b bd e9 2a 0b 3c
       0.048223246 -0.089659795 -0.061522137 0.008494117
0003d0 d3 f2 af bd 12 40 b6 bd 8c 6b dd bd 34 32 83 bd
       -0.08591237 -0.08898939 -0.108115286 -0.0640606
0003e0 8c 28 09 be 46 2c 9a bd 27 3c 75 bd fb d5 9c 3d
       -0.13394374 -0.07527976 -0.05987182 0.07658001
0003f0 34 55 80 bd 0b 37 6c be a9 d7 8b bd 65 39 a5 bd
       -0.06266251 -0.23067872 -0.06828243 -0.08067588

lstm.bias_hh_l0 f4 [400]
000000 cf 5a 3d 3d b3 2d 09 3d 69 bd d9 3d d7 f6 a3 3b
       0.04622918 0.033490848 0.1063183 0.005003791
000010 44 81 f5 3c 1a 38 7d bd 77 71 1a be d7 2b a1 3d
       0.029968865 -0.06182108 -0.15082346 0.0786969
000020 12 4e 91 3d 54 90 ed 3d f3 a5 03 3e 33 e5 b6 bd
       0.07094969 0.11599794 0.12856273 -0.08930435
000030 8d 53 16 bd 0d 30 09 3e c2 e7 21 3d bf 86 b0 3d
       -0.036700774 0.13397236 0.039527662 0.08619451
000040 85 d2 72 bc 2f dc d0 3d 3e f3 ca bd 07 3e e5 3d
       -0.0148207 0.10198247 -0.09909676 0.111934714
000050 af 3f bb 3d 9a 57 5c 3c 33 b4 ba 3d c4 79 b1 3d
       0.09143006 0.01344862 0.091164015 0.08665803
000060 b1 4a 0c 3d 3b d8 44 3d 78 48 c1 3b d0 6e e5 3d
       0.03425092 0.048057776 0.0058985315 0.112027764
000070 27 f1 1b 3d 84 d5 23 bc 66 dc 14 3e ac 03 24 bd
       0.038071778 -0.009999637 0.145372 -0.040042564
000080 95 52 61 3d b3 fb c6 bd 91 d3 c4 3c 21 89 8b bd
       0.055010397 -0.097159766 0.024026664 -0.06813265
000090 50 99 2f 3d 9a 5a 15 bd 7d 15 66 3d 67 44 93 bd
       0.04287082 -0.036463358 0.056172837 -0.07190781
0000a0 98 ef 79 3d 82 54 20 bd 0f 07 97 bb eb 3d 9f 3d
       0.06101951 -0.039143093 -0.0046089957 0.07775482
0000b0 46 a8 0d bd 02 93 9f 3d bd 18 c7 3c 21 91 6f 3d
       -0.034584306 0.077917114 0.024303788 0.058488015
0000c0 9b c8 91 bc da 73 0f bd 76 bd bb bc 22 90 25 bd
       -0.017795851 -0.035022594 -0.02291749 -0.04042066
0000d0 39 0b b9 3d 58 f3 30 3e 13 58 97 3d e2 9a 9e bc
       0.09035344 0.17280328 0.07389846 -0.019360963
0000e0 e3 6d 38 3e 17 ac 94 3c 48 e9 87 bd 23 af ba 3d
       0.18010668 0.018148465 -0.06636292 0.09115436
0000f0 94 c0 b5 3d 6f ff 6b bd c1 45 8f bc 53 99 63 bd
       0.08874622 -0.057616647 -0.017489316 -0.055566143
000100 fe 35 e2 3d 88 c6 03 3d 6f 07 a8 3d f6 02 1a 3e
       0.110454544 0.032171756 0.08204543 0.15040192
000110 c8 a1 1b bd 11 ab f7 bd d2 f6 71 3c 52 23 03 3e
       -0.037996083 -0.12093175 0.014768319 0.12806442
000120 58 93 02 3e 72 c5 cc 3d 73 11 0f 3d 56 ae c2 3d
       0.1275152 0.09998597 0.03492875 0.09505908
000130 25 ea 6d 3d fd 98 69 3d c2 43 c0 3d a1 9c 74 bc
       0.058084626 0.057030667 0.09387924 -0.014929921
000140 6f 3d 7a 3d fb 64 e7 3d 0d 5d e4 3c bb 03 11 bd
       0.061093744 0.11298557 0.027876401 -0.03540395
000150 8a 58 41 bd 97 b7 14 3d 95 65 57 3c 42 d8 15 bb
       -0.047203578 0.036307897 0.013146778 -0.0022864495
000160 4f 0e db bd 75 bc 1f 3d 81 0f 02 bd b1 71 e2 bc
       -0.106960885 0.038998086 -0.031753067 -0.027642103
000170 25 a9 01 3c 5d 3d 54 3d 2e f8 80 3d 0a 49 05 3d
       0.007913862 0.051816333 0.062973365 0.03254036
000180 2e e5 27 3c 87 dd 8e 3d a1 d7 d7 3d b6 a7 04 3e
       0.010247512 0.06975847 0.10539175 0.12954602
000190 35 64 86 3c 55 9c bd 3d ab 94 16 be f5 01 2a bd
       0.016405204 0.092583336 -0.1470515 -0.041505773
0001a0 f8 20 63 3d cb f7 b6 3d da af 8c 3d c8 fe 20 3d
       0.055451363 0.089339815 0.068694785 0.03930548
0001b0 83 e5 c3 3d 8a 40 42 bd 3a a0 e4 3d 69 88 32 bd
       0.0956526 -0.04742483 0.11163373 -0.043587122
0001c0 bd 86 a4 3d 6a be 46 bd 91 41 a1 3b d5 bf ec ba
       0.08033512 -0.048521437 0.004921146 -0.0018062541
0001d0 cc 2c d3 3c 1d 12 13 bb dd 64 76 bd d7 43 86 bc
       0.025778197 -0.0022441216 -0.060154784 -0.01638977
0001e0 74 d2 71 bc db 46 ec 3d 17 05 45 bd 5c e7 86 3c
       -0.014759649 0.11536952 -0.048100557 0.016467743
0001f0 7d c5 73 3d 74 f0 09 3c 30 01 f6 3d b6 e8 06 3e
       0.05951451 0.008419145 0.12011945 0.1317471
000200 c2 81 bc bc 33 23 21 bd c2 80 b8 3d be fb 4f bd
       -0.023011092 -0.03934021 0.090089336 -0.05077719
000210 47 07 bc 3d b1 30 9e 3d b6 12 25 3b 54 34 1b 3c
       0.091810755 0.07724131 0.0025188155 0.009472925
000220 28 76 a2 3d 9a 91 38 3d 8e 23 f8 3d 4c dc 2e 3d
       0.07932693 0.04506073 0.121161565 0.04269056
000230 72 da 58 bc fa 7b 38 3d 3f 9e 5e 3d ba de 7a 3c
       -0.013235675 0.04504011 0.054350134 0.015311891
000240 9c 92 98 3d 50 87 bb 3c b1 29 84 3d a2 48 ce 3d
       0.074498385 0.02289167 0.064532645 0.10072447
000250 7e 36 65 bd 79 52 86 bd 61 23 21 3d cd 02 b9 3d
       -0.05596017 -0.06558699 0.03934038 0.09033737
000260 57 40 85 bd 87 94 02 3e 09 76 3a bd 0a 98 8b 3d
       -0.065064125 0.12751971 -0.045522723 0.068161085
000270 44 c0 1b 3d 4d c3 64 3d 34 63 ae 3d 53 d2 d3 3d
       0.038025156 0.055850316 0.08515015 0.103428505
000280 a7 fe 3e 3d dd 35 17 bc 2a d9 df bb dc 30 bc 3d
       0.046629574 -0.009229151 -0.006831308 0.09189007
000290 7e f3 cd 3d 00 77 a2 bd 74 a6 dd 3d d2 bc eb 3d
       0.10056208 -0.07932854 0.10822764 0.11510624
0002a0 9c bb ca 3d d3 21 76 3d 2b ea 0c 3d 70 38 aa 3d
       0.09899065 0.06009085 0.034403007 0.08311546
0002b0 b1 b1 10 3d f1 f6 e5 3d 2c 66 e0 3d 8c 2e 17 bc
       0.03532571 0.11228741 0.10956988 -0.009227406
0002c0 b3 b5 03 bd 76 6f b0 3d c0 bb 4f 3c 4c 48 f3 3d
       -0.032155704 0.086150095 0.01267904 0.11879024
0002d0 ee 01 f2 ba 1a 7a 80 3d 6e ad a1 3d 13 54 86 bb
       -0.001846371 0.06273289 0.07894407 -0.004099378
0002e0 9f b0 03 3e 10 13 52 bd ab c6 78 3d e0 2b 7c 3d
       0.12860344 -0.05128771 0.06073634 0.06156528
0002f0 08 c4 c6 bd 62 ee 5c bc 10 7a 7c bd 40 cd a6 3d
       -0.09705359 -0.013484569 -0.061639845 0.08144617
000300 39 7c bb 3d e2 8d 23 bc 4e 08 42 3d 4e db f7 3d
       0.09154553 -0.009982558 0.0473712 0.12102376
000310 e2 e0 6c 3d e8 16 95 3d b4 2e 0d 3d 91 f1 7e bd
       0.057831652 0.0727976 0.034468368 -0.062242094
000320 4c 75 0d 3d c6 49 35 3d e0 73 c8 bb 6e ef 5a 3b
       0.03453569 0.04425981 -0.006117329 0.0033406871
000330 1c db ff 3d f2 bb 09 3e 15 b9 43 bd fd 7d 2c 3d
       0.12492964 0.13450602 -0.04778393 0.04211234
000340 87 83 67 3d 9d 3a 05 3a 80 b4 a4 3d b1 61 bc bd
       0.05652192 0.00050822814 0.0804224 -0.09198321
000350 a8 b8 a2 bd be 46 16 bd 8b 01 72 3d 69 6b 9a 3d
       -0.07945377 -0.03668856 0.059083503 0.07540018
000360 11 01 71 3d a0 7f f0 bc 5f 06 08 3c b7 3f 49 bd
       0.058838908 -0.029357731 0.0083023 -0.04913303
000370 6c f7 8c bd 5e 20 85 bc 8f db 9f 3d b6 69 85 bd
       -0.068831295 -0.016250785 0.07805549 -0.065143034
000380 6f 56 ca 3d 13 00 f1 3d 41 5a 13 be 55 d6 e0 3c
       0.09879767 0.11767592 -0.14389898 0.027445951
000390 a4 fd e0 3d 6a 0b cd 3d a9 c1 95 3d 58 d9 cc bb
       0.10985878 0.10011943 0.07312328 -0.0062514953
0003a0 c1 d6 0d be ff 9c 13 bd 18 ff c3 3c 2b 10 98 bd
       -0.13851453 -0.036038395 0.02392535 -0.07424959
0003b0 10 b1 85 bd 86 9c 95 bd 57 cc f0 bd 6a 19 4d bd
       -0.065279126 -0.07305245 -0.11757725 -0.050073065
0003c0 ab f1 2d bc 46 04 81 bd bd d2 b0 3d 9d e6 9c bc
       -0.0106167 -0.06299643 0.08633945 -0.019152934
0003d0 38 ae a0 bd cf 0f ab 3d 33 3c db bc ed f9 6d bd
       -0.078457296 0.083526246 -0.026762104 -0.058099676
0003e0 a0 f4 17 bd 44 e4 f2 bd 43 2a a3 bc 72 e4 f8 3d
       -0.037098527 -0.118599445 -0.019917613 0.121529475
0003f0 65 aa 53 bd 77 a7 3f be 6d 0b 5b bd 49 65 c9 bd
       -0.051676173 -0.18716227 -0.053477693 -0.09833772

lstm.weight_ih_l0_reverse f4 [400, 100]
000000 14 77 0f 3d 9a 3a 30 3d 5a ae dc 3c ca a8 83 3d
       0.03502567 0.043024637 0.026938606 0.06428678
000010 dd b7 02 3d f9 d4 d2 bc 1c 43 5c bd 7c 33 91 bd
       0.031913627 -0.025736319 -0.053774938 -0.07089898
000020 a7 7f 1f 3b ca 95 f6 bc 32 7a e8 3d 26 f4 00 3e
       0.0024337561 -0.030100722 0.11351432 0.12593135
000030 0f df b3 3c d0 7d de 3d 81 55 e7 3d f8 9b 17 3d
       0.021956949 0.108638406 0.112956055 0.037013978
000040 a2 be 88 bd 92 f1 e8 3d 8b 1a 77 3c ce 9c bf 3d
       -0.06676985 0.11374201 0.015082012 0.0935608
000050 1e e2 2c 3d 6e d2 92 3d 21 1d 8e 3c 75 b9 88 3d
       0.04220783 0.071690425 0.017347874 0.06675998
000060 21 69 62 bd d1 10 62 3d 07 8c b9 3d bd 45 42 bc
       -0.05527604 0.05519182 0.09059911 -0.011857447
000070 88 99 bd 3d 72 13 62 3d 20 3b 41 3d 11 4c 74 3d
       0.092577994 0.055194326 0.047175527 0.059642855
000080 f3 e5 a8 3c 9c 52 b4 3d b7 fe 28 3d d6 e7 27 3c
       0.02061746 0.08804819 0.04125854 0.010248145
000090 78 67 61 bd 99 ef 1a bd 5c d1 26 bd 34 ac ce 3d
       -0.055030316 -0.037826154 -0.040727004 0.10091439
0000a0 a7 3a 8d bd b2 10 e6 3c 10 cd 13 bd 83 10 de 3c
       -0.06895953 0.028084133 -0.036084235 0.027107483
0000b0 2f 06 11 bd d6 24 22 3d c5 9a 76 3d da 29 1e 3d
       -0.035406288 0.03958591 0.060206193 0.03861413
0000c0 93 dc a4 bc 8a 8c 64 3c a2 8d be 3d 35 81 d7 3d
       -0.02012471 0.013949523 0.09304358 0.10522691
0000d0 61 65 4f 3d 2a 1a 36 3d 91 04 62 3c a3 24 64 bd
       0.05063379 0.044458546 0.013795034 -0.055699002
0000e0 7a 66 b4 bc 82 fb de 3d dd 25 02 3d e2 74 90 3d
       -0.02202152 0.10887815 0.03177439 0.070535436
0000f0 ca 03 84 bd 3f 9e a7 bc a8 45 9a 3d 2f c7 62 3d
       -0.06446035 -0.0204612 0.07532817 0.055365738
000100 17 f0 88 bd 4a fe 54 3c e4 5b 95 3d 98 8d 44 bd
       -0.066864185 0.01300008 0.07292917 -0.047986597
000110 65 f5 7e bd 53 44 5a 3d 54 39 eb 3c 4d 3c 06 3e
       -0.062245745 0.053287815 0.02871386 0.1310894
000120 11 ba eb 3c 88 70 25 bb ea fd 90 bd d9 5a cb 3d
       0.028775247 -0.0025244076 -0.0707968 0.09929437
000130 6d ea fa 3d dd db cd 3d 2d 2b 03 bd b8 47 31 bd
       0.122517444 0.10051701 -0.032023598 -0.043281287
000140 8d d9 96 3d e5 e4 cf 3d ab 0f ba 3d 5a dd 29 3d
       0.07365713 0.1015108 0.0908502 0.041470863
000150 53 cb ba 3d d2 91 b0 3d 79 55 95 3d 22 56 51 bd
       0.09120812 0.08621563 0.07291693 -0.051107533
000160 6b 79 8a bd 90 14 ec 3c 2e 07 df 3d a1 0b df 3d
       -0.0676144 0.028818399 0.10890041 0.1089089
000170 59 8d 68 3d 5d fe 44 3d 35 3f 7b bd 5c 71 5c 3d
       0.056775425 0.048094142 -0.061339576 0.053819045
000180 1c 6b f7 3d 2b 10 d4 3d b2 a7 aa 3d b0 ee 80 bd
       0.12080976 0.10354646 0.083327666 -0.06295526
000190 f5 21 76 bc a9 68 25 bc a8 f6 71 bd cd 98 94 3d
       -0.015022744 -0.010095754 -0.05907312 0.07255707
0001a0 1f dc 06 3d 94 90 31 bd 47 7e a0 3d 48 c8 58 3d
       0.032924768 -0.04335077 0.078365855 0.052925378
0001b0 42 d4 38 3d 7c 4f 6e bd 1e 2e 8b 3d a4 b2 d6 3d
       0.0451243 -0.05818127 0.067959055 0.10483292
0001c0 92 09 b4 3d bd bc 34 bd c5 4a c6 3d 99 14 f6 bc
       0.08790888 -0.044125307 0.0968223 -0.030039119
0001d0 6a f8 cd 3d 9a 3f 31 bd d2 a9 97 3d 29 4a 62 3d
       0.10057147 -0.043273546 0.074054375 0.055246506
0001e0 ff 69 9e 3c 1e 5c c3 3d af d9 00 bd c5 a1 3c bd
       0.019337652 0.09539054 -0.0314576 -0.046052713
0001f0 3c 13 5c bc b3 f4 d5 bb 0f 15 82 3d 07 eb c3 3c
       -0.01343232 -0.0065294146 0.06351673 0.02391578
000200 b0 19 9b 3d 14 0d 65 bd 77 27 be 3c d9 fe 2c 3c
       0.07573259 -0.055920675 0.023212178 0.010558807
000210 43 0a f7 3d 8f 18 48 bc 49 67 4b bb a8 af 22 3d
       0.12062504 -0.0122128865 -0.0031036905 0.0397183
000220 92 da 52 bd 8a d6 83 3d b9 b4 0c bd 4b 21 52 3d
       -0.051477976 0.064374045 -0.034352038 0.051301282
000230 06 82 c9 3b f7 7b 10 bd 87 ce ae 3d 1d a5 9c 3c
       0.006149533 -0.035274472 0.08535486 0.0191217
000240 cb 8f 0f 3c 2a 70 9d 3d ab ae a5 3c 9e dd 9b bd
       0.00876231 0.07687409 0.02022489 -0.076106295
000250 fa e2 be bb 25 dc b2 bc 6c 21 da 3d f7 66 8d bd
       -0.0058253976 -0.021833489 0.10650906 -0.069044046
000260 7e 4d 3a 3d 7a 9f 05 bd 75 f9 c9 3d 70 0e 38 bd
       0.04548406 -0.03262279 0.09862033 -0.044935644
000270 f4 51 98 3d 80 06 39 3c ab f4 de 3d d1 94 b9 3d
       0.07437506 0.011293054 0.108865105 0.090615876
000280 99 36 20 bd 99 bc bb 3b 5a 5c ef 3b fc 57 d3 bc
       -0.03911457 0.0057292697 0.0073047103 -0.02579879
000290 1c 75 1d bd 8e 80 a4 bc 6e 08 14 bd 57 ee a7 3d
       -0.038441762 -0.02008083 -0.03614085 0.081997566
0002a0 04 c3 5a 3d a7 4a 7f 3d ca f3 d6 3c b5 56 ab bc
       0.053408638 0.062327053 0.026239295 -0.020915369
0002b0 bc 3f 8b bd c3 0a 91 bd 6c 87 ac 3d c0 91 46 bc
       -0.06799266 -0.07082131 0.08424267 -0.01211971
0002c0 68 43 35 3d 2b cb 76 bd bc 61 9d bd 04 42 c6 3d
       0.044253737 -0.06025235 -0.07684657 0.0968056
0002d0 23 57 a2 3d 15 b8 f5 3d 96 41 7f bd 87 3c aa bc
       0.07926776 0.119980015 -0.062318407 -0.020780815
0002e0 1f 08 4e 3b f8 f1 ed 3d 5c a5 91 3d e4 c7 c0 3d
       0.0031437946 0.116184175 0.07111618 0.09413126
0002f0 c6 8c 80 bd bc 62 80 3d b6 8b e4 3d d1 c7 98 3d
       -0.062768504 0.06268832 0.1115946 0.07459987
000300 38 15 90 3c 7d 46 6c bd a5 22 c1 3b 91 c3 c5 3d
       0.017588243 -0.05768441 0.0058940225 0.09656442
000310 92 e6 d8 3d 4b 12 82 bd 87 1a ee bb 72 a1 fa 3d
       0.10590853 -0.06351145 -0.007266346 0.122378245
000320 ee d4 8d 3d 44 8d 83 3d e4 25 19 3e c9 f2 19 3e
       0.06925379 0.06423429 0.1495586 0.15034021
000330 7d 38 d8 3d b9 2d 0a 3e 4a d0 b8 3d 6e c7 c7 ba
       0.10557649 0.13494004 0.09024103 -0.001524193
000340 72 8f 16 3d 0d 75 e1 ba 96 41 b9 3d 8b 99 3c 3e
       0.036757894 -0.0017201022 0.09045713 0.18417947
000350 98 7b 1d 3e 14 99 03 3d 5a 8f 10 3e ba 6d 52 3d
       0.15379179 0.03212841 0.14117184 0.051374175
000360 13 b6 3c 3e 90 a8 55 3d 0b 61 2d 3b 7b 6f e4 3c
       0.18428831 0.052162707 0.0026455547 0.02788519
000370 ef a5 03 3e 88 3c b3 3d 6c 6e 08 3e 5b 64 b5 3d
       0.12856267 0.0875178 0.13323373 0.08857032
000380 da dc 33 3d fa ab 87 3d 85 3a 06 3e 29 60 a6 3d
       0.043911792 0.06624599 0.13108261 0.0812381
000390 9d 60 03 3e 74 9a 91 3d 4b 4d 2b 3e 79 53 d2 3c
       0.12829824 0.07109538 0.16728704 0.025674568
0003a0 2f bb 37 3e 6d ff 18 3e bb 1d 30 3e ce aa 29 3e
       0.17942499 0.14941187 0.17198841 0.16569063
0003b0 b2 f7 92 3d 25 9e e4 3d 1a 4f 01 3e 22 c8 04 3e
       0.071761504 0.11162976 0.12627831 0.1296697
0003c0 b1 66 04 3e 60 fc 3d 3c 11 6e 85 3d f2 89 00 3e
       0.12929799 0.011595815 0.06515134 0.12552622
0003d0 a6 98 22 3e 9c 4e d4 3d 1b 12 76 3d 6f 33 3b 3e
       0.15878543 0.10366556 0.06007586 0.18281339
0003e0 3f d4 7a 3d 50 f2 db 3d 63 c0 c9 3d a4 33 dd 3c
       0.06123757 0.10739577 0.09851148 0.027002163
0003f0 2b 0f 4e 3e ac c5 0d 3e 6d be d2 3d 24 78 e4 3d
       0.20122974 0.13844937 0.10290227 0.111557275

lstm.weight_hh_l0_reverse f4 [400, 100]
000000 18 09 30 bd fd cd 25 3d 47 3b df 3c 5c 9c 41 bd
       -0.042977422 0.04047965 0.027249945 -0.047268257
000010 c5 a0 43 3d a0 63 64 bd e6 9d 4c 3d 6d ed 31 3d
       0.047760744 -0.055759072 0.04995527 0.043439317
000020 b1 52 46 3d 48 b0 cc bd 7b 81 e6 bc 5b 20 e6 bd
       0.048418704 -0.099945605 -0.028137913 -0.1123664
000030 85 87 48 bc 03 96 6d 3d 3a d1 8e 3d c7 a6 a3 3b
       -0.012239342 0.05800439 0.069735005 0.0049942466
000040 c9 c0 f1 bc 2a 4f 11 3e c4 57 a5 bd cf fe ff 3d
       -0.029510872 0.14190355 -0.080733806 0.12499773
000050 4c 36 3a bd c7 62 2c bc 18 cf 8c 3d f9 01 59 3c
       -0.045461938 -0.010521597 0.068754375 0.013245099
000060 32 3a 91 bd 0f e0 83 bd 65 84 1c 3b d5 c2 a6 3a
       -0.07091178 -0.0643922 0.0023882624 0.0012722859
000070 18 01 ad 3d dc c4 89 3d a4 4a f6 3d 82 1e ac bd
       0.08447474 0.06727001 0.12025955 -0.084042564
000080 be e6 7f 3d d0 b3 aa 3d ce cb 12 bd 21 e6 ea 3d
       0.062475912 0.08335078 -0.035838895 0.11469675
000090 cf b5 1a 3d 18 4e 58 3d e0 ba 05 bd d3 9d 0d 3e
       0.037771042 0.05280885 -0.03264892 0.13829736
0000a0 80 47 98 bc 67 88 d8 3d 53 b0 9d 3c 7b 29 21 bd
       -0.018588781 0.10572892 0.019249117 -0.0393462
0000b0 93 9b 54 3d f7 fa 38 3d 2e 02 17 bd c2 3a d5 3c
       0.05190618 0.045161214 -0.036867313 0.026028994
0000c0 f1 34 0d be fe 02 da bd 81 72 d6 3d b0 60 22 bd
       -0.13789727 -0.10645102 0.10471059 -0.03964299
0000d0 84 8c f2 3d 39 5d c5 3d 71 52 64 bd 5d 84 c3 3d
       0.118432075 0.096369214 -0.055742685 0.09546731
0000e0 2c b2 44 3d d7 bf 3d bd 4f f6 d8 bb 58 d3 ef 3d
       0.04802148 -0.04632553 -0.006621159 0.117102325
0000f0 2b c4 b2 3d 44 0c 0a 3d ea 1c 63 3d 43 be 6f bd
       0.08728822 0.033703104 0.055447496 -0.058531057
000100 f1 a5 42 bd 89 76 c8 bd b2 43 55 3d 64 fd b6 3c
       -0.047521535 -0.09788234 0.052066512 0.022337623
000110 7d 72 c6 3d 27 da 0f bc 18 f4 95 3c 3b 00 13 3d
       0.09689806 -0.008780039 0.01830487 0.03588889
000120 08 19 de bd 15 4e e0 3d 52 1d 05 bd 68 eb cc 3d
       -0.10844618 0.10952393 -0.032498665 0.10005838
000130 f2 d3 d9 3d 33 cd 21 3c b7 c5 2d 3d 34 80 6e bd
       0.106361285 0.009875583 0.042424884 -0.058227733
000140 20 2e 1a 3d d8 05 e3 bb 38 ae cd 3d f1 82 ac 3d
       0.037641644 -0.006928187 0.10042995 0.084234126
000150 c2 b4 1f bd 46 53 23 3b 64 1a 4d 3d c4 e0 bf bd
       -0.038990743 0.002492146 0.050073996 -0.093690425
000160 56 98 f3 bc 98 4f 07 be d7 c1 59 bc be 50 ba 3d
       -0.029735725 -0.13213956 -0.013290844 0.090974316
000170 a4 49 f9 3d 63 44 bc bc 56 d9 e4 3b be 57 e8 3d
       0.12172249 -0.022981828 0.0069839163 0.113448605
000180 be f7 84 3b 5d d3 16 bc 6f 20 a1 3d 6a ca 7e 3d
       0.0040578535 -0.009205666 0.07867514 0.062204756
000190 d6 19 93 3d 8c 22 00 be 49 9e dd 3d 19 b5 51 bc
       0.07182662 -0.12513179 0.10821206 -0.012799525
0001a0 8b a5 c3 3d 8c cf 88 bc 1d e5 73 bd e5 be ab bd
       0.09553059 -0.016700529 -0.05954467 -0.083860196
0001b0 97 d5 04 be 1e 0d f7 bd 9e bb 63 3d 76 e1 b3 bc
       -0.12972103 -0.12063049 0.055598848 -0.021958094
0001c0 2c 44 09 3e 36 74 0c bd d8 54 64 bd a8 53 d9 3c
       0.13404912 -0.034290515 -0.055744976 0.026529148
0001d0 19 68 c0 3d d4 50 31 bd f5 1b dd bc df eb 4d 3d
       0.09394855 -0.043289974 -0.02699087 0.050273772
0001e0 d6 af 60 3d 35 a1 03 bd f5 15 b8 3d f5 50 05 be
       0.05485519 -0.03213616 0.08988563 -0.13019164
0001f0 98 c9 6b 3c 85 63 76 3c 51 db 51 bd 2c 1f 68 bd
       0.014391325 0.015038376 -0.051234547 -0.056670353
000200 15 91 a3 3d 51 32 98 bc ca 70 08 3e ad 18 c0 bd
       0.079866566 -0.01857868 0.13324276 -0.093797065
000210 9b aa 63 3d 90 45 d9 3b 30 30 43 3d 8a 49 08 3e
       0.055582624 0.006630607 0.047653377 0.13309303
000220 da 03 1e 3c e4 33 ab 3d 60 81 8a bd e0 6f 64 3d
       0.009644473 0.08359507 -0.067629576 0.055770755
000230 87 ab 0e 3d 5e 40 d1 3d 29 d5 eb bd fd a9 3a bc
       0.03483155 0.10217355 -0.115152664 -0.011393067
000240 b5 c1 a7 bd 4b 62 bf bd 27 c0 73 3d 52 9c b7 bd
       -0.081912436 -0.0934492 0.059509423 -0.089653626
000250 d2 1d d1 bd 88 4c 62 bd 78 e7 5d 3d 35 08 35 3d
       -0.10210766 -0.055248767 0.054175824 0.04419728
000260 7e 1f 00 3e 49 ec 25 3d 8b 95 94 3c 01 3f bb 3c
       0.12512013 0.040508542 0.018137714 0.022857191
000270 ee c3 81 3d 09 09 0b be a4 23 dc 3d 08 7a df 3d
       0.06336199 -0.13577665 0.107489854 0.109119475
000280 93 c1 0a 3d 41 76 95 bc 30 59 4b bd ac 77 a6 3c
       0.033876013 -0.018244864 -0.049645603 0.020320736
000290 98 ec 60 bd 83 25 37 3c 19 43 02 be 82 b4 fe 3c
       -0.054913133 0.011178377 -0.12720908 0.031091932
0002a0 e8 61 96 bc d9 7f 15 be 4c 42 88 bd 12 e0 81 3d
       -0.018357232 -0.14599551 -0.0665327 0.06341566
0002b0 b7 17 d5 bd 35 19 36 bd be e1 a1 bd fc 59 21 bd
       -0.10404914 -0.044457633 -0.07904385 -0.039392456
0002c0 2d 14 f1 3d f1 cd 00 be fc 41 a5 3d 9b 7c af 3d
       0.11771426 -0.1257856 0.08069226 0.085686885
0002d0 90 19 2c 3c 8a 1a 66 3c e2 c1 ac 3d c7 9b 9e bc
       0.010504141 0.014044413 0.08435418 -0.01936139
0002e0 a2 38 ae bc e7 e7 0b be dd be de 3d 1b 6a de bd
       -0.021267239 -0.13662682 0.10876248 -0.10860082
0002f0 fe fa 37 bd c1 8c ee bc b3 6e 6e bd 90 1a ee 3d
       -0.0449171 -0.029119851 -0.05821104 0.1162616
000300 9b 6c 0c 3d 7e 5a b4 bd 15 40 9c bd 2f 03 ba 3d
       0.03428326 -0.088063225 -0.0762941 0.090826385
000310 d2 64 f3 3d 4f d7 dd 3d b2 b9 8f 3d 65 e1 0c bc
       0.11884464 0.108320825 0.070178404 -0.00859866
000320 5a 31 08 3e 4f 24 3a bd 62 1d f3 3d e2 e6 5c bd
       0.13300076 -0.045444783 0.11870839 -0.053931125
000330 97 9e 88 3d 52 fc 11 be 06 76 11 be 02 54 ac bd
       0.066708736 -0.14256409 -0.14205179 -0.08414461
000340 d6 a5 03 be 27 b9 8f bd 7e 0b a7 bc 27 78 0c be
       -0.1285623 -0.07017737 -0.020391222 -0.1371771
000350 92 c9 a1 3d 7a 55 ea 3b 2a 73 36 3d 76 ce ca bd
       0.078997746 0.007151303 0.044543423 -0.099026605
000360 2b 5a 27 bc 92 66 0d bd 1d 01 12 3d 8a 9c e1 3d
       -0.010214369 -0.034521647 0.035645593 0.110161856
000370 1e b4 da 3b c7 4f 76 bc dd b1 17 3e ef 49 8e 3c
       0.0066743037 -0.015033669 0.14813943 0.017369239
000380 43 bc f4 3d b4 59 11 be ed 6f 71 be 15 a2 05 bd
       0.119499706 -0.14194375 -0.23577853 -0.032625277
000390 f8 36 82 3d ac 78 bd 3d 14 c0 aa 3d c2 59 3a be
       0.06358141 0.09251532 0.08337417 -0.18198302
0003a0 45 af ca bc 21 bd 25 bd ef b0 95 bb 79 79 06 bb
       -0.024741778 -0.04046357 -0.0045682113 -0.002051918
0003b0 39 a5 1b be bb 46 e1 bd 8b f2 dc bd 32 2c ae 3d
       -0.15199746 -0.10999819 -0.10788449 0.08504523
0003c0 59 bb c8 3c 1a ce a1 3e c5 82 24 be e8 8b 94 3d
       0.024503397 0.31602556 -0.1606551 0.072532475
0003d0 1d e4 48 3d f2 15 2b bc 7d 40 06 be 9c 65 2f 3d
       0.04904567 -0.010442244 -0.13110538 0.04282151
0003e0 db 9c 93 bd 3a b2 cb bd 96 14 a2 bc 55 ea 5e 3d
       -0.07207652 -0.099461034 -0.019785207 0.054422695
0003f0 b5 1a 16 3e 89 55 b4 3d fc 1f df bd f3 7c 09 3b
       0.14658625 0.08805377 -0.108947724 0.0020979017
